experiments/J0007_JDDB_PBMNet_wgr_ncc_gt_s2h/models/600000_DSNet.pth (torch_old, 40958 bytes, 8 tensors)

simple_block.0.weight f4 [16, 4, 3, 3]
-0.14444329 -0.23623371 0.01764487 -0.3143411 -0.35284114 -0.115761854 -0.058148615 0.1030801
-0.046802633 -0.076639265 -0.119742006 -0.13178454 0.037033617 -0.19103572 -0.18755622 0.16529915
-0.23541257 0.009531183 -0.08259492 0.1278407 -0.23738603 0.23977555 -0.098226145 -0.28619885
0.0036280868 -0.1912448 -0.15681544 0.26687974 -0.030516544 0.02098102 -0.157806 0.1623086
0.11307473 -0.067872316 0.0144845415 -0.14546219 -0.10567178 -0.10388165 -0.040559527 0.16422056
0.0610282 0.15845932 0.05867131 0.047705993 0.015126662 0.1630332 -0.1916916 -0.12943393
0.19198447 0.055339396 0.14772044 -0.15631665 0.03940274 -0.13330948 0.06275821 0.058309365
0.13656764 0.33420834 -0.364863 0.17285763 0.23484829 -0.006639845 -0.0627804 0.090803236
-0.146794 0.2364099 0.10803084 0.08291344 -0.113095716 -0.054666832 0.02843732 0.19340871
0.18350512 -0.1118821 -0.15171853 0.119119786 0.09365614 -0.17606996 0.15491839 -0.1688338
0.5094511 -0.31385988 0.03958315 -0.095444225 0.108778775 0.07405332 0.0014296358 0.043509062
0.0076207886 -0.019631935 -0.14279336 0.10561224 0.07180354 0.22447114 0.2698238 -0.005100608
0.076494366 0.24300182 0.06836931 0.08649308 0.014469852 0.14190796 0.066024914 -0.043962557
0.12342838 -0.03478227 0.09727518 0.110159114 0.03354298 0.1921487 -0.06774843 0.13364218
-0.1285196 0.11501861 -0.16540179 0.11435757 -0.33250645 -0.16034819 0.16184723 -0.061935898
-0.094064966 0.10730811 0.004093776 0.017636698 -0.08437995 0.20696183 0.06300425 -0.1879043
0.15768343 0.19730924 0.42244083 0.16922219 0.16452208 0.17123665 0.15095837 0.3674315
-0.19528596 0.07584585 0.17854747 0.03681935 0.0055917725 0.050698157 0.040620595 0.10710868
0.15211202 -0.072292544 0.05924162 -0.12137718 0.18700951 0.14800696 -0.104194835 -0.14815891
-0.07734801 0.04466238 -0.076566614 0.19011083 0.03880969 -0.100151144 0.021551596 0.34199804
-0.45882156 -0.24647452 -0.21484892 0.028885834 0.14680922 0.054851245 -0.06513955 0.09854304
0.19259429 0.042419598 0.18690516 -0.16565824 -0.018854963 0.0033571455 0.1762489 0.00859858
0.25803128 0.018959608 -0.04143648 -0.13294622 0.055890284 -0.05958168 0.017141478 0.17764734
0.19620845 0.059138816 0.22062778 0.07104716 -0.041017327 0.11433258 0.005391708 -0.08298629
0.31270617 0.052318215 -0.12510493 0.042394854 -0.25785998 0.43922094 0.054625157 0.101026125
-0.12736873 -0.26236564 0.052881252 0.20634353 0.11765594 0.28097412 -0.061963014 0.08431342
-0.057667416 -0.009790435 -0.03016686 0.3315083 0.017825969 -0.03815054 0.10527821 -0.04022859
-0.16424161 0.036496423 0.15868986 -0.17940809 0.1853358 0.016217489 0.11344109 -0.06530016
-0.15478407 -0.08729798 0.11441336 0.32774585 0.17214896 0.2747019 0.17772484 -0.08289877
-0.042390194 0.14817584 0.11518379 0.0044343146 -0.07039328 0.27907094 0.19398983 0.033630352
-0.042253643 -0.07319175 -0.010674759 -0.12744357 0.3650795 0.27593356 0.17310423 0.17336299
0.02084227 -0.2703873 0.13614236 0.18077525 -0.06979369 0.044735365 0.20962648 -0.054668322
00000000: f1e8 13be 40e7 71be f98b 903c 51f1 a0be
00000010: 98a7 b4be 8d14 edbd 3e2d 6ebd a91b d33d
00000020: 1eb4 3fbd 0cf5 9cbd 4c3b f5bd 87f2 06be
00000030: 90b0 173d de9e 43be bd0e 40be 2e44 293e
00000040: fe0f 71be ae28 1c3c 8727 a9bd ace8 023e
00000050: 5315 73be b987 753e ca2a c9bd a888 92be
00000060: 32c5 6d3b add5 43be 3a94 20be 76a4 883e
00000070: d5fd f9bc 63e0 ab3c e597 21be 3a34 263e
00000080: b993 e73d a400 8bbd 9250 6d3c 0af4 14be
00000090: 726a d8bd e7bf d4bd bf21 26bd 6f29 283e
000000a0: b5f8 793d 2943 223e 5451 703d 5c67 433d
000000b0: d2d5 773c 2df2 263e ce4a 44be 548a 04be
000000c0: 9497 443e 90ab 623d 0744 173e 7911 20be
000000d0: c464 213d 4882 08be 6087 803d cdd5 6e3d
000000e0: 63d8 0b3e 5b1d ab3e 53cf babe 9701 313e
000000f0: 127c 703e 0f93 d9bb 0393 80bd 0cf7 b93d
00000100: 2b51 16be 7015 723e 463f dd3d 86ce a93d
00000110: ba9e e7bd 54ea 5fbd 62f5 e83c ef0c 463e
00000120: c4e8 3b3e 7122 e5bd 1a5c 1bbe 13f5 f33d
00000130: cace bf3d af4b 34be eda2 1e3e c5e2 2cbe
00000140: 636b 023f 3eb2 a0be f121 223d 4378 c3bd
00000150: 68c7 de3d 44a9 973d 9e62 bb3a 8f36 323d
00000160: cfb7 f93b 27d3 a0bc 6c38 12be 3b4b d83d
00000170: bc0d 933d c3db 653e 5826 8a3e 0023 a7bb
00000180: 14a9 9c3d 78d5 783e 3505 8c3d 4923 b13d
00000190: f512 6d3c 5250 113e 1238 873d 1512 34bd
000001a0: 05c8 fc3d db77 0ebd 3638 c73d 1a9b e13d
000001b0: 5d64 093d a1c2 443e b0bf 8abd 7fd9 083e
000001c0: a49a 03be e18e eb3d 165f 29be 4d34 ea3d
000001d0: 493e aabe 5132 24be 48bb 253e 7fb0 7dbd
000001e0: 22a5 c0bd 5bc4 db3d 1525 863b d67a 903c
000001f0: 65cf acbd cded 533e 5f08 813d fc69 40be
00000200: c477 213e 6f0b 4a3e 2a4a d83e 9548 2d3e
00000210: 7a78 283e a958 2f3e d594 1a3e fb1f bc3e
00000220: 0bf9 47be 1255 9b3d 26d5 363e e3cf 163d
00000230: 303b b73b dfa8 4f3d c861 263d cc5b db3d
00000240: 41c3 1b3e 1d0e 94bd 57a7 723d 9994 f8bd
00000250: 6c7f 3f3e 238f 173e 1a64 d5bd f8b6 17be
00000260: a268 9ebd e6ef 363d f5ce 9cbd 6aac 423e
00000270: e9f6 1e3d 0b1c cdbd f98c b03c 5e1a af3e
00000280: a9ea eabe d163 7cbe 5b01 5cbe fca1 ec3c
00000290: 2855 163e b3ab 603d e267 85bd efd0 c93d
000002a0: 7037 453e 2cc0 2d3d 1164 3f3e 50a2 29be
000002b0: b975 9abc 8e03 5c3b 977a 343e 0fe1 0c3c
000002c0: ad1c 843e 2e51 9b3c 4cb9 29bd 0e23 08be
000002d0: 36ed 643d eb0b 74bd 496c 8c3c 2fe9 353e
000002e0: deea 483e 8b3b 723d 40ec 613e 2c81 913d
000002f0: c901 28bd 3327 ea3d edac b03b b7f4 a9bd
00000300: 061b a03e a04b 563d 821b 00be 3aa6 2d3d
00000310: 3906 84be 91e1 e03e a1be 5f3d c9e6 ce3d
00000320: f36c 02be ca54 86be 039a 583d b84b 533e
00000330: 99f5 f03d d7db 8f3e eecc 7dbd 84ac ac3d
00000340: ab34 6cbd 1068 20bc 7e20 f7bc 75bb a93e
00000350: c407 923c be43 1cbd 1a9c d73d bcc6 24bd
00000360: f42e 28be 467d 153d 987f 223e c1b6 37be
00000370: abc8 3d3e 8ada 843c cd53 e83d 17bc 85bd
00000380: b77f 1ebe 49c9 b2bd 8d51 ea3d 4ece a73e
00000390: d147 303e baa5 8c3e 80fd 353e d5c6 a9bd
000003a0: 57a1 2dbd 68bb 173e 7be5 eb3d ba4d 913b
000003b0: 5a2a 90bd 63e2 8e3e 45a5 463e fbbf 093d
000003c0: 2812 2dbd 8ee5 95bd 2fe5 2ebc 9180 02be
000003d0: b3eb ba3e 2a47 8d3e 3c42 313e 1186 313e
000003e0: 69bd aa3c 3470 8abe e768 0b3e 261d 393e
000003f0: ffef 8ebd 6e3c 373d 53a8 563e e4eb 5fbd

simple_block.1.weight f4 [16, 16, 3, 3]
-0.08572825 0.025096813 0.023109274 -0.097040065 -0.016269075 -0.08136788 -0.08196742 -0.11327508
-0.03287939 -0.030509101 -0.025597068 -0.031750526 0.11290162 0.050652016 0.002687769 0.060542043
-0.03603994 -0.070830725 0.06561449 -0.085135385 -0.011827889 -0.0678806 0.04555442 0.094871245
-0.027686866 -0.02411098 0.16473123 0.08032526 0.02550067 -0.015191925 0.013666609 0.051370762
-0.011569175 0.057664197 -0.030311901 0.055851936 0.036334805 0.09023474 0.038093038 -0.017736368
0.025551524 0.020573141 -0.005230189 -0.101695895 0.084104925 0.04138514 0.039161894 0.056480985
0.02785593 0.0051099593 -0.071598575 -0.008784273 0.07044092 0.076683946 -0.1095274 -0.016811278
0.053307995 -0.09169878 0.04632436 0.100208774 0.030283958 -0.092326425 0.0216639 0.004959705
-0.09438083 0.011151452 0.07601515 -0.028078366 0.0019155812 0.029738918 -0.026277758 -0.09294334
-0.08133628 -0.098822735 0.05193205 0.0026432408 -0.12569673 0.02953084 -0.059316047 0.16443148
-0.1443911 0.09371257 -0.005684761 -0.07719467 0.083745256 -0.037449498 0.052218407 0.051829144
-0.14128438 0.06389884 -0.042383615 -0.04332956 0.038828038 -0.12302966 -0.04908118 -0.025472732
0.05182364 -0.067915596 0.018736688 0.026933128 -0.07805783 -0.11842899 -0.14075103 -0.09449996
0.026167067 -0.022004185 0.05217925 0.050090957 0.020415481 -0.07570845 0.11899512 -0.056992617
-0.04617616 0.023429705 -0.026208673 -0.00070211 -0.047420327 -0.004267835 -0.00987629 -0.015847774
-0.044581912 0.08311171 0.060896643 -0.033397947 -0.13214643 0.030616643 -0.010607385 -0.05601441
-0.1026352 0.09445868 0.122274384 -0.20099016 0.018894307 0.10180959 -0.0037249662 0.09870839
0.00041575512 -0.075528994 0.081884585 0.06967682 0.073443465 0.046531875 -0.032199953 0.0071219993
0.09112008 -0.04029975 0.067094564 0.12816861 -0.057560105 0.043752432 -0.0049788384 0.087765716
0.08272915 0.12110582 -0.032306645 -0.040472332 0.07720459 -0.08999764 -0.07030448 -0.05239506
-0.09788861 0.021794923 0.028827865 0.003533785 -0.057226945 -0.06417613 -0.032960698 0.06968938
0.06492901 0.14191595 0.043578736 -0.066728234 0.040287744 -0.07789221 0.108756386 0.06683882
0.09034984 -0.013250952 0.084024504 0.05557997 -0.018118035 0.0012056543 0.039925747 0.060105514
0.14748345 0.10127161 0.02215383 0.061359122 -0.06575979 0.061376393 -0.054299217 -0.10269911
0.019009758 -0.123238415 -0.059187096 0.14605775 0.023058098 0.059402425 0.010184905 0.015836598
-0.012299154 -0.04477216 -0.2247912 -0.07243641 0.03143871 0.09659875 0.0024106614 -0.11883147
-0.008847318 -0.009357996 -0.060670562 -0.04276341 -0.03399104 0.07614999 -0.19597055 0.028643336
-0.018898059 0.14531642 0.100911126 -0.1163158 0.12633665 0.07163334 -0.006606663 -0.009210159
-0.013875074 0.060064934 0.07530489 -0.08845778 0.042485908 0.043429114 0.085232936 -0.02508897
0.11231141 0.0022966661 -0.07075016 -0.13995141 -0.04800426 -0.11582231 -0.058248773 -0.021580331
-0.0057985066 -0.16441071 -0.027745988 0.0027338308 0.004534045 0.055503767 0.048977 -0.04085801
-0.017306702 -0.022775149 -0.12990336 0.021222359 0.013488458 0.012440923 0.05277293 -0.104842074
00000000: 4b92 afbd d597 cd3c a94f bd3c f1bc c6bd
00000010: b946 85bc 34a4 a6bd 89de a7bd c4fc e7bd
00000020: 8aac 06bd 39ee f9bc f1b0 d1bc d70c 02bd
00000030: f738 e73d 7d78 4f3d 4825 303b effa 773d
00000040: 9e9e 13bd b30f 91bd e460 863d 765b aebd
00000050: c3c9 41bc fc04 8bbd 4697 3a3d db4b c23d
00000060: 91cf e2bc 6484 c5bc 4eaf 283e 9281 a43d
00000070: c8e6 d03c 8de7 78bc eae9 5f3c 266a 523d
00000080: a38c 3dbc 4b31 6c3d aa50 f8bc 00c5 643d
00000090: ced3 143d fecc b83d 7207 1c3d dc4b 91bc
000000a0: 6e51 d13c 0189 a83c 0162 abbb f045 d0bd
000000b0: 343f ac3d 7783 293d 3968 203d 9b58 673d
000000c0: 1f32 e43c 7271 a73b 46a2 92bd e9eb 0fbc
000000d0: 5443 903d 790c 9d3d e74f e0bd ceb7 89bc
000000e0: 7c59 5a3d 92cc bbbd 9dbe 3d3d 423a cd3d
000000f0: 1016 f83c a315 bdbd 7e78 b13c 0585 a23b
00000100: bd4a c1bd 94b4 363c d5ad 9b3d 9a04 e6bc
00000110: 3d14 fb3a 089f f33c 7444 d7bc 1459 bebd
00000120: a393 a6bd 9363 cabd b4b6 543d 393a 2d3b
00000130: a5b6 00be a9ea f13c 62f5 72bd ba60 283e
00000140: 43db 13be 60ec bf3d 3b47 babb 3d18 9ebd
00000150: a282 ab3d a564 19bd f8e2 553d cc4a 543d
00000160: daac 10be 65dd 823d 719a 2dbd 567a 31bd
00000170: 260a 1f3d f9f6 fbbd 5909 49bd 31ac d0bc
00000180: 0645 543d 5517 8bbd af7d 993c dda2 dc3c
00000190: c9dc 9fbd e68a f2bd 0a21 10be 3289 c1bd
000001a0: 515c d63c 1f42 b4bc e9b9 553d 2d2c 4d3d
000001b0: 5e3e a73c 080d 9bbd b7b3 f33d 1771 69bd
000001c0: 3723 3dbd a7ef bf3c 92b3 d6bc ce0d 38ba
000001d0: d13b 42bd 32d9 8bbb 2ad0 21bc 31d3 81bc
000001e0: 869b 36bd 7936 aa3d c26e 793d 49cc 08bd
000001f0: 6551 07be c1cf fa3c 99ca 2dbc 5e6f 65bd
00000200: 6732 d2bd 8d73 c13d fe6a fa3d 5dd0 4dbe
00000210: 3cc8 9a3c 8c81 d03d 901e 74bb a027 ca3d
00000220: b5f9 d939 f2ae 9abd 1bb3 a73d b8b2 8e3d
00000230: 8769 963d 3598 3e3d 19e4 03bd a95f e93b
00000240: 2a9d ba3d 5a11 25bd e068 893d a23e 033e
00000250: 25c4 6bbd c035 333d 8625 a3bb 83be b33d
00000260: e76d a93d 5406 f83d f953 04bd 51c6 25bd
00000270: 711d 9e3d af50 b8bd ccfb 8fbd 349c 56bd
00000280: d379 c8bd 448b b23c 6a28 ec3c 1397 673b
00000290: cd66 6abd c66e 83bd cc01 07bd 4eb9 8e3d
000002a0: 80f9 843d 6a52 113e 9e7f 323d d0a8 88bd
000002b0: c304 253d f385 9fbd abbb de3d cbe2 883d
000002c0: 5609 b93d 851a 59bc 0a15 ac3d d3a7 633d
000002d0: 466c 94bc 0c07 9e3a 2e89 233d 3331 763d
000002e0: e705 173e 7d67 cf3d f37b b53c b453 7b3d
000002f0: 12ad 86bd d065 7b3d db68 5ebd e953 d2bd
00000300: 5aba 9b3c 6c64 fcbd 2b6e 72bd 2a90 153e
00000310: 56e4 bc3c f54f 733d 96de 263c c1bb 813c
00000320: 6482 49bc 0363 37bd aa2f 66be 8a59 94bd
00000330: e0c5 003d 91d5 c53d 30fc 1d3b ea5d f3bd
00000340: 57f4 10bc 4852 19bc b281 78bd af28 2fbd
00000350: 303a 0bbd 87f4 9b3d 81ac 48be 6ea5 ea3c
00000360: 1ad0 9abc d4cd 143e 7eaa ce3d fa36 eebd
00000370: 655e 013e 80b4 923d b57c d8bb 35e6 16bc
00000380: 4754 63bc a606 763d 7339 9a3d 5a29 b5bd
00000390: b405 2e3d bae2 313d 9b8e ae3d 6287 cdbc
000003a0: 8603 e63d aa83 163b 76e5 90bd 6c4f 0fbe
000003b0: 1da0 44bd 3f34 edbd 4496 6ebd 3cc9 b0bc
000003c0: 6601 bebb 485b 28be 8e4b e3bc 122a 333b
000003d0: 5392 943b eb57 633d 1b9c 483d bb5a 27bd
000003e0: c9c6 8dbc f392 babc 6305 05be 83da ad3c
000003f0: b1fe 5c3c 03d5 4b3c 6e28 583d 71b7 d6bd

simple_block.1.bias f4 [16]
0.092722155 0.06705726 0.048610885 0.12586229 0.008745122 -0.019129643 0.025354644 0.11858535
0.09930133 0.0054125185 0.10466837 0.10257171 0.040584456 -0.119808935 -0.022128956 -0.05159733
00000000: 1de5 bd3d 5155 893d 351c 473d 0be2 003e
00000010: b347 0f3c c5b5 9cbc 8bb4 cf3c e0dc f23d
00000020: 7f5e cb3d 7f5b b13b 5f5c d63d 1e11 d23d
00000030: e33b 263d 635e f5bd c947 b5bc b957 53bd

simple_block.3.weight f4 [16, 16, 3, 3]
-0.13353756 -0.13699234 -0.11784347 -0.041076332 0.034294482 0.024356779 -0.016360797 0.11753893
0.030535255 0.10220118 0.15937307 -0.010272363 -0.051320203 0.025582599 0.084052354 0.052383516
0.072635375 0.07783265 -0.16260406 -0.0724232 0.053928714 -0.12608445 0.023296827 0.113702245
-0.08563411 -0.07252373 0.050123513 -0.1572397 0.04739985 0.081473805 -0.07494249 0.09002841
0.053306427 -0.019499889 0.0112301 0.06879801 -0.0265591 0.06574136 0.034382105 0.022438928
-0.034792382 0.06928279 0.05985932 0.017944966 0.09083631 -0.04838438 -0.033916026 -0.04410752
-0.034336183 -0.00023985514 -0.11088098 0.18195951 0.031131482 0.058781587 -0.014125233 -0.061582036
-0.012709692 -0.18613161 -0.08087055 -0.022244457 -0.032188803 -0.1448733 -0.053287894 0.015292935
0.040325236 -0.019422408 0.09548032 0.14420667 -0.079034016 0.04307758 -0.1215369 0.020429645
-0.0025431197 0.1391631 0.08473598 0.09028207 0.090357214 0.10804634 -0.11587126 -0.007607951
0.1172294 -0.04773248 -0.06301341 -0.09485771 0.02745644 0.023827791 -0.0457038 0.18751095
0.21670274 -0.027862186 -0.031850945 0.0071646553 0.06173848 0.05416181 0.049366035 0.054995026
0.028362548 -0.07760734 -0.03036697 0.13666743 0.018588414 -0.016546378 0.06591852 0.011193396
0.12455712 -0.013881842 -0.0036696729 0.06420198 0.018726531 -0.061816506 -0.005298142 0.17318636
-0.026410012 -0.12060487 0.1302741 -0.05405136 0.10905985 0.029579245 0.056164533 -0.07322895
-0.03672155 0.047690123 0.00087121106 -0.054937646 0.033315383 -0.029371558 -0.01991491 -0.0007501289
0.085668586 0.046641313 -0.07223158 -0.04680691 -0.03660699 -0.024257826 0.029984368 0.032453608
-0.14641058 -0.20385425 -0.06018567 0.040317792 0.04760132 0.12590969 0.04628519 -0.02540185
0.007679866 -0.011447417 -0.10350593 0.11043258 -0.09365639 -0.0410218 -0.043278158 -0.011766061
0.06595919 0.040551495 -0.026411653 0.02656882 -0.05650475 0.002461827 -0.032028284 0.056637224
0.045457244 -0.0785353 -0.11303085 -0.083915494 -0.06405429 0.10036987 0.191648 0.003758601
0.011853786 -0.032106888 0.02966416 0.0302602 0.024399104 -0.08757191 -0.06701815 -0.31631154
-0.13040875 0.018753521 -0.051083837 -0.07432171 0.06620357 0.1452054 0.2072612 -0.029429648
-0.01399595 -0.007860379 -0.030740408 -0.050675057 -0.008750509 0.08737575 -0.0249315 -0.15769094
0.18910907 0.09085184 -0.024086734 0.093840435 0.0823615 0.0647092 0.1932968 0.011971486
0.0884834 -0.008929487 -0.03643603 0.10979476 -0.012402655 0.05868018 0.008738008 -0.12089344
0.0638128 -0.064633235 0.22898667 0.026897965 0.1640882 -0.018519389 0.0023854359 0.11097875
-0.21698493 -0.043813087 0.037272774 -0.091422684 -0.122685805 -0.15681027 -0.030010412 -0.09998888
-0.044214804 -0.024986017 0.0661127 0.0103486935 -0.18745746 -0.10085323 0.023830038 -0.15681884
0.046672028 0.012676196 -0.08728268 -0.06092175 -0.15556416 -0.14225055 -0.030907348 -0.07700741
-0.084261626 -0.035059687 -0.07048962 0.037959736 0.03750077 -0.08423102 -0.017448615 0.048612878
-0.015619722 -0.11334304 0.084046945 -0.00013857588 0.07242461 0.077118754 -0.050034158 0.035918023
00000000: 12be 08be b847 0cbe eb57 f1bd a83f 28bd
00000010: 5f78 0c3d de87 c73c 1407 86bc 40b8 f03d
00000020: 1225 fa3c da4e d13d b232 233e 6a4d 28bc
00000030: 2235 52bd 9992 d13c a423 ac3d 1990 563d
00000040: dbc1 943d b966 9f3d ae81 26be 9d52 94bd
00000050: 5be4 5c3d 481c 01be fdd8 be3c b9dc e83d
00000060: f060 afbd 5287 94bd 504e 4d3d 7203 21be
00000070: 5826 423d bddb a63d 737b 99bd d160 b83d
00000080: d757 5a3d 3bbe 9fbc 74fe 373c f9e5 8c3d
00000090: 7892 d9bc 68a3 863d 40d4 0c3d d8d1 b73c
000000a0: 7582 0ebd 23e4 8d3d 0c2f 753d 5201 933c
000000b0: 6308 ba3d b32e 46bd 88eb 0abd 16aa 34bd
000000c0: 19a4 0cbd a081 7bb9 9115 e3bd 9853 3a3e
000000d0: 7307 ff3c f6c4 703d 856d 67bc 723d 7cbd
000000e0: 503c 50bc 4999 3ebe 759f a5bd 023a b6bc
000000f0: 68d8 03bd ab59 14be 6844 5abd 388f 7a3c
00000100: 132c 253d be1b 9fbc 308b c33d eaaa 133e
00000110: 96dc a1bd 1e72 303d 57e8 f8bd 125c a73c
00000120: 78aa 26bb c680 0e3e 0f8a ad3d cee5 b83d
00000130: 340d b93d 6647 dd3d e94d edbd 1e4c f9bb
00000140: f815 f03d 2283 43bd 2d0d 81bd c244 c2bd
00000150: 54ec e03c 8032 c33c e833 3bbd df02 403e
00000160: 53e7 5d3e 3d3f e4bc 2376 02bd 7cc5 ea3b
00000170: 7de1 7c3d c6d8 5d3d 0a34 4a3d 7742 613d
00000180: 9358 e83c 99f0 9ebd 27c4 f8bc 8cf2 0b3e
00000190: bb46 983c 458c 87bc 4a00 873d 8164 373c
000001a0: ce17 ff3d aa70 63bc e57e 70bb 547c 833d
000001b0: 6268 993c 4e33 7dbd 099c adbb c457 313e
000001c0: cf59 d8bc b0ff f6bd 9366 053e f564 5dbd
000001d0: c55a df3d 2c50 f23c c80c 663d 0ff9 95bd
000001e0: 5669 16bd b856 433d fc61 643a 4c06 61bd
000001f0: b675 083d 9f9c f0bc 9824 a3bc 4ca4 44ba
00000200: 0373 af3d f60a 3f3d 27ee 93bd 9ab8 3fbd
00000210: 36f1 15bd 59b8 c6bc c7a1 f53c 13ee 043d
00000220: a8ec 15be 2bbf 50be 4085 76bd 4524 253d
00000230: 9af9 423d 78ee 003e 8a95 3d3d 8a17 d0bc
00000240: 63a7 fb3b f28d 3bbc ebfa d3bd 7a2a e23d
00000250: ecce bfbd 7a06 28bd 7044 31bd 70c6 40bc
00000260: 9d15 873d 5319 263d 405d d8bc dba6 d93c
00000270: 8671 67bd 9a56 213b 1730 03bd 6ffc 673d
00000280: 6031 3a3d 1ed7 a0bd b87c e7bd e3db abbd
00000290: e52e 83bd b88e cd3d 603f 443e dc52 763b
000002a0: 6236 423c 8382 03bd 4102 f33c 3de4 f73c
000002b0: a1e0 c73c e758 b3bd d040 89bd 96f3 a1be
000002c0: df89 05be fca0 993c 493d 51bd fb35 98bd
000002d0: bd95 873d b9b0 143e 483c 543e 7216 f1bc
000002e0: 454f 65bc d2c8 00bc 4fd3 fbbc a690 4fbd
000002f0: 4b5e 0fbc 0ff2 b23d 253d ccbc bc79 21be
00000300: cfa5 413e 8810 ba3d 8b51 c5bc 6a2f c03d
00000310: 25ad a83d 4286 843d 99ef 453e 0d24 443c
00000320: c936 b53d fc4c 12bc f23d 15bd 13dc e03d
00000330: 8134 4bbc a15a 703d dd29 0f3c fb96 f7bd
00000340: 49b0 823d 6e5e 84bd 7b7b 6a3e 1f59 dc3c
00000350: bd06 283e f9b5 97bc f954 1c3b d448 e33d
00000360: 4c31 5ebe 5a75 33bd 56ab 183d d13b bbbd
00000370: b242 fbbd df92 20be 65d8 f5bc f8c6 ccbd
00000380: 951a 35bd 7aaf ccbc 1866 873d 918d 293c
00000390: d9f4 3fbe 238c cebd 3637 c33c 1e95 20be
000003a0: 2b2b 3f3d d2af 4f3c 43c1 b2bd 1689 79bd
000003b0: 364c 1fbe 21aa 11be 6831 fdbc 10b6 9dbd
000003c0: 5c91 acbd bf9a 0fbd dd5c 90bd ab7b 1b3d
000003d0: 689a 193d 5081 acbd 66f0 8ebc 4c1e 473d
000003e0: dde9 7fbc 6520 e8bd ce20 ac3d ae4e 11b9
000003f0: 5b53 943d 70f0 9d3d 9ef0 4cbd c71e 133d

simple_block.4.weight f4 [16, 16, 3, 3]
-0.010149454 -0.1395512 0.05021269 -0.024608169 0.053635716 -0.041645356 -0.023788651 0.049797986
0.06590074 0.04993706 -0.09364892 0.02025462 -0.044195216 -0.0042742966 -0.0018843586 -0.0292159
-0.121064395 -0.030405069 -0.011772083 0.071877375 0.0642396 -0.10016703 0.13261916 0.09326804
-0.08846625 -0.057450924 -0.05745601 -0.05651083 0.04185052 -0.16721568 0.0015223022 -0.055613883
-0.19502306 -0.015780253 0.08995943 0.049025495 -0.033874173 -0.0131014045 0.11479697 0.017366724
-0.05315289 -0.05574083 0.047865216 0.18126456 -0.012797501 0.08617124 -0.009433864 -0.034229383
0.08470644 0.0831135 0.08059895 -0.030300533 0.049865592 0.09297447 0.03742178 -0.07141559
0.072841115 0.055429973 -0.033045325 0.16965158 0.045701332 0.06921741 0.024383696 -0.08600574
0.059331447 0.051580716 -0.010568306 0.16658545 0.03352578 0.04957682 -0.06307566 0.012937935
0.046345185 -0.2488178 0.06455468 0.017716363 0.092388056 -0.16784921 0.0023036646 0.055897012
0.22059269 0.0647079 0.035243306 -0.033510245 -0.07995082 0.047737155 -0.07528369 0.14623642
-0.0036985879 0.042380754 0.0102322865 -0.0005575912 0.11351844 -0.08159223 -0.17554508 -0.02174303
-0.030527815 0.00849517 0.069693774 -0.20742124 -0.16771092 -0.018831898 -0.025471995 -0.09763308
0.12061028 -0.2111099 -0.014605878 0.072906695 -0.010544956 -0.14035305 -0.0036766801 0.044374432
0.024091782 0.020261232 0.07005059 -0.047400765 -0.062447377 0.027455043 -0.005384775 0.034982197
0.09568042 0.019827591 -0.08158967 -0.06658998 0.033573996 0.11575427 -0.12555239 0.019003978
-0.06488968 -0.05034445 -0.01171952 -0.0524227 -0.018731978 0.054922927 -0.014351233 0.15692224
-0.008341203 0.0071182093 -0.033303417 0.04527765 -0.12279013 -0.0054462207 0.11646955 -0.17567699
-0.093184605 -0.0088892495 0.011850965 0.041985866 -0.018941589 -0.09337167 0.08682079 -0.0852888
-0.0374973 0.016431116 0.023167139 -0.10989428 0.051348016 -0.06811502 0.17352098 0.018710608
0.13500375 0.018835131 0.03590089 -0.02128096 -0.0063440045 0.024809107 -0.063072845 -0.2279312
0.067561485 0.05722837 -0.03378473 -0.02961944 -0.00164556 -0.08552625 -0.1525977 -0.045475084
-0.0020576639 0.007956388 0.07686058 0.0034081072 0.04478695 -0.028642775 0.047163643 -0.0032925417
-0.008204824 0.05293217 0.069566645 -0.09747792 0.069192715 0.0005888381 -0.03912247 -0.073034406
-0.07127555 -0.023395926 -0.048967794 -0.054194875 0.005126248 -0.098060444 -0.0022881553 -0.012426617
0.07385327 0.015619555 0.026383359 0.08178782 -0.06444886 0.067167856 0.11761976 0.09830983
-0.01493194 0.10675722 0.14858061 -0.12718457 -0.10298592 -0.0138858855 0.022957634 0.014172219
-0.07475911 -0.08166232 -0.01924429 -0.06349926 0.06272841 0.0045621744 -0.037992615 -0.01232397
-0.103333764 0.0061540175 -0.052589726 0.05331542 -0.08982692 0.050414264 -0.04641404 0.058592316
0.049607947 -0.05474251 0.0030679833 -0.045007337 0.040835097 0.009039105 0.042748813 -0.07682482
0.072197154 0.064195774 -0.04888142 -0.07299638 0.029403437 -0.0681229 -0.040208545 0.019668344
0.089185886 -0.043191116 -0.010799961 0.015724316 0.116881646 -0.11009676 0.074201226 0.004608911
00000000: e549 26bc 83e6 0ebe d2ab 4d3d 1297 c9bc
00000010: 20b1 5b3d 5294 2abd 6be0 c2bc f9f8 4b3d
00000020: f8f6 863d cd8a 4c3d 01cb bfbd 04ed a53c
00000030: 0b06 35bd 660f 8cbb 95fc f6ba 2f56 efbc
00000040: 9cf0 f7bd 0d14 f9bc b2df 40bc 7234 933d
00000050: 0d90 833d 5f24 cdbd 51cd 073e 5003 bf3d
00000060: cb2d b5bd a951 6bbd fe56 6bbd e677 67bd
00000070: 736b 2b3d 963a 2bbe fc87 c73a 62cb 63bd
00000080: 20b4 47be 9745 81bc a63c b83d f5ce 483d
00000090: a5bf 0abd 46a7 56bc ac1a eb3d a944 8e3c
000000a0: d8b6 59bd 7f50 64bd 510e 443d 6b9d 393e
000000b0: 9cac 51bc 8c7a b03d 7e90 1abc 1c34 0cbd
000000c0: 927a ad3d 6937 aa3d 1011 a53d d338 f8bc
000000d0: dd3f 4c3d 6669 be3d 9547 193d 5642 92bd
000000e0: b92d 953d 8a0a 633d 895a 07bd 25b9 2d3e
000000f0: 5231 3b3d dcc1 8d3d 51c0 c73c c723 b0bd
00000100: 8805 733d 4d46 533d b026 2dbc 6095 2a3e
00000110: 5452 093d 1011 4b3d d02d 81bd a2f9 533c
00000120: 73d4 3d3d 18ca 7ebe 3e35 843d e821 913c
00000130: f335 bd3d aae0 2bbe 14f9 163b 44f4 643d
00000140: 0de3 613e 9385 843d 495b 103d 0a42 09bd
00000150: 41bd a3bd 0988 433d 562e 9abd 00bf 153e
00000160: 0264 72bb 7197 2d3d 52a5 273c 502b 12ba
00000170: 5b7c e83d d419 a7bd 17c2 33be 701e b2bc
00000180: 7815 fabc 532f 0b3c 9cbb 8e3d 3c66 54be
00000190: 69bc 2bbe 5a45 9abc a5aa d0bc daf3 c7bd
000001a0: 8602 f73d 322d 58be 7e4d 6fbc 1b50 953d
000001b0: c0c4 2cbc b6b8 0fbe 75f4 70bb f7c1 353d
000001c0: 215c c53c e2fa a53c af76 8f3d 4e27 42bd
000001d0: d2c8 7fbd 66e9 e03c c472 b0bb 7e49 0f3d
000001e0: 19f4 c33d 796d a23c 7c18 a7bd 5460 88bd
000001f0: e384 093d 9310 ed3d ce90 00be 3bae 9b3c
00000200: e1e4 84bd fb35 4ebd 3b03 40bc 2fb9 56bd
00000210: ce73 99bc ddf6 603d 6f21 6bbc 39b0 203e
00000220: 8ba9 08bc de3f e93b 2a69 08bd 0f75 393d
00000230: 6479 fbbd 3676 b2bb 9687 ee3d abe4 33be
00000240: 92d7 bebd 37a4 11bc 8d2a 423c 5ff9 2b3d
00000250: 642b 9bbc a539 bfbd 19cf b13d e5ab aebd
00000260: c596 19bd 8c9a 863c 03c9 bd3c 4110 e1bd
00000270: 4c52 523d e37f 8bbd 7caf 313e fd46 993c
00000280: 6c3e 0a3e 224c 9a3c d00c 133d 6855 aebc
00000290: 5ee1 cfbb 783c cb3c 562c 81bd cc66 69be
000002a0: ad5d 8a3d 4c68 6a3d db61 0abd 78a4 f2bc
000002b0: d5af d7ba 6328 afbd 9242 1cbe 1544 3abd
000002c0: dfd9 06bb 835b 023c 1469 9d3d 8d5a 5f3b
000002d0: 8572 373d 41a4 eabc aa2e 413d afc7 57bb
000002e0: 876d 06bc 67cf 583d f578 8e3d 81a2 c7bd
000002f0: e9b4 8d3d 425c 1a3a e23e 20bd 1093 95bd
00000300: eaf8 91bd d0a8 bfbc 7492 48bd 72fb 5dbd
00000310: 16fa a73b ead3 c8bd e0f4 15bb 0299 4bbc
00000320: 6240 973d 29e9 7f3c ea21 d83c 5f80 a73d
00000330: c4fd 83bd 4d8f 893d a1e2 f03d aa56 c93d
00000340: 18a5 74bc 88a3 da3d 8425 183e ac3c 02be
00000350: 48ea d2bd a081 63bc a611 bc3c 9832 683c
00000360: 4e1b 99bd 933e a7bd 34a6 9dbc e60b 82bd
00000370: c177 803d 4b7e 953b 259e 1bbd 7aea 49bc
00000380: a7a0 d3bd a4a7 c93b 5368 57bd 4561 5a3d
00000390: 2df7 b7bd 307f 4e3d a61c 3ebd 7ffe 6f3d
000003a0: b431 4b3d af39 60bd 3810 493b 9d59 38bd
000003b0: b442 273d c118 143c 6119 2f3d 5556 9dbd
000003c0: 1adc 933d 1379 833d e237 48bd 207f 95bd
000003d0: 7adf f03c 0584 8bbd b7b1 24bd 821f a13c
000003e0: 17a7 b63d 2be9 30bd 52f2 30bc 48d0 803c
000003f0: a55f ef3d 697a e1bd d0f6 973d 5906 973b

simple_block.4.bias f4 [16]
-0.08565899 0.029144704 0.029386694 0.102675274 0.017723078 0.13357046 -0.0027622783 0.0044343974
0.08594921 0.06452176 0.007958951 0.0055864966 -0.0018890145 0.07557479 0.0026549345 0.099044956
00000000: fb6d afbd e0c0 ee3c 5dbc f03c 6a47 d23d
00000010: fd2f 913c b2c6 083e 5707 35bb 6c4e 913b
00000020: 2406 b03d fc23 843d 4366 023c ee0e b73b
00000030: cf98 f7ba f5c6 9a3d 69fe 2d3b 15d8 ca3d

simple_block.6.weight f4 [16, 16, 3, 3]
-0.16764902 0.0033416909 0.042601317 -0.0016138909 -0.041275688 0.034374397 -0.027643623 0.019814987
-0.06883544 -0.00020953477 0.017927619 0.10621907 -0.086693734 0.1360419 -0.10487785 0.19415872
0.02090352 -0.009819595 -0.016020354 0.049715508 0.05726205 0.17757565 -0.053449973 0.107773684
-0.06991947 -0.039784707 0.019850055 0.1514306 0.21194842 0.009436163 0.010130867 -0.00855222
-0.036655713 0.028784323 -0.06891339 -0.04222407 -0.042237293 0.06153234 0.101726025 0.018737843
-0.14388578 0.17664103 0.056794338 0.025049364 -0.043780673 -0.040545598 0.018301375 0.1147926
-0.02674395 0.052872647 0.17377008 -0.0364011 0.08498556 -0.0014620194 0.19061135 0.10157987
0.008294902 -0.06407637 -0.111898325 -0.035125244 -0.1115575 -0.040669657 0.0852935 0.16490605
-0.0074104415 0.16990165 -0.08743152 0.0644151 0.023829376 0.05331442 0.11090191 0.12371008
-0.036274828 -0.08659051 -0.12282846 0.041551802 -0.039614003 -0.024602551 0.068530336 -0.08835893
-0.06153765 0.033086233 -0.06757195 -0.04803198 0.026694486 -0.17253399 -0.1372061 -0.027396947
-0.074427724 -0.18733144 0.17794736 0.12644996 -0.0043343105 -0.02989001 -0.030996688 -0.0038039451
-0.17920922 -0.0037308275 0.01764163 0.027712293 -0.0038547658 -0.08126138 -0.20066637 0.07665253
-0.08796796 -0.038807623 -0.009320548 0.091127925 -0.084561415 -0.05614934 -0.090554945 -0.004873937
0.048787203 -0.074131496 -0.047955763 -0.05115239 0.037754126 -0.048420664 -0.075797245 0.04949849
-0.027564729 0.018835137 0.05398874 0.13594054 -0.07460341 0.017308544 -0.013759932 0.0011560353
0.048439942 0.054082714 0.031666033 0.07307237 0.112886146 0.14888181 0.033756778 -0.1342952
-0.029277043 -0.11418502 -0.11909028 -0.029008228 0.035669673 0.14188287 0.12321925 0.21106696
0.008918948 -0.049872335 -0.087840945 0.16249433 -0.010653301 -0.01927637 0.18317004 0.095880754
0.14041227 0.14064561 -0.041295853 0.0014003012 -0.056539863 0.0032570977 -0.09072752 0.01755749
0.016059943 -0.2475882 0.035350908 -0.0026769226 -0.054354906 -0.08193145 -0.13083014 -0.18798947
-0.11925607 0.0059423074 -0.20009916 -0.023270324 0.08106041 0.049935635 -0.014899678 0.0011981978
0.0586191 -0.06733729 0.05991906 0.02138749 0.0223508 -0.14435767 -0.028929574 0.0051893494
-0.03347581 0.06260947 -0.047668245 -0.022566637 0.1654278 0.053275164 0.012389166 0.10193022
0.059823606 0.06110241 -0.02892462 0.11187375 -0.02473209 0.06382865 -0.020845855 0.09361815
0.093976684 0.07630959 -0.014390082 0.1501206 -0.023374282 0.036306594 0.17560095 -0.11323379
-0.06641727 -0.060470738 0.12636602 0.16718207 0.020437405 -0.12860854 0.077756986 0.13629146
0.0781773 -0.11646763 -0.040513273 -0.08198853 -0.10099564 -0.10137772 0.011108369 0.0144930575
-0.20710984 0.011873114 -0.005279037 -0.0155089665 0.09604076 -0.00090700295 -0.0594504 -0.07562356
-0.0016743027 -0.056780778 -0.08765252 -0.053652484 -0.16604275 -0.023648687 0.011678689 0.1158715
0.02779329 -0.024468627 0.18159159 0.032760352 -0.035552815 0.011016642 0.13490818 0.2200193
0.13028857 0.021834776 0.014320853 -0.013146492 0.047387835 0.02210481 0.11558769 0.07632833
00000000: 2fac 2bbe 4500 5b3b b87e 2e3d 3189 d3ba
00000010: b210 29bd 2bcc 0c3d e174 e2bc 0a53 a23c
00000020: 98f9 8cbd 90b6 5bb9 f1dc 923c 6289 d93d
00000030: 7c8c b1bd 914e 0b3e 33ca d6bd 8bd1 463e
00000040: dc3d ab3c 5ee2 20bc 1e3d 83bc 7da2 4b3d
00000050: 9d8b 6a3d 64d6 353e 5cee 5abd 73b8 dc3d
00000060: f031 8fbd 4af5 22bd 959c a23c a010 1b3e
00000070: 0209 593e 239a 1a3c f0fb 253c 9c1e 0cbc
00000080: 4d24 16bd 1acd eb3c 7722 8dbd 25f3 2cbd
00000090: 0301 2dbd 5609 7c3d bc55 d03d 1b80 993c
000000a0: cb56 13be 63e1 343e 2ea1 683d 5334 cd3c
000000b0: 5d53 33bd 2413 26bd c4ec 953c 6218 eb3d
000000c0: 2116 dbbc fd90 583d c9f0 313e 5219 15bd
000000d0: e90c ae3d 3ba1 bfba 9f2f 433e 1b09 d03d
000000e0: 57e7 073c 793a 83bd f32a e5bd 7ddf 0fbd
000000f0: 4278 e4bd 3a95 26bd 5cae ae3d 22dd 283e
00000100: 4ad3 f2bb b3fa 2d3e 4c0f b3bd 10ec 833d
00000110: d335 c33c 3960 5a3d 8a20 e33d b65b fd3d
00000120: ea94 14bd 5e56 b1bd 7d8d fbbd 3932 2a3d
00000130: 4b42 22bd 4a8b c9bc a259 8c3d 87f5 b4bd
00000140: e70e 7cbd 6e85 073d 2a63 8abd 2ebd 44bd
00000150: 65ae da3c c0ac 30be c27f 0cbe 906f e0bc
00000160: 906d 98bd d0d3 3fbe d537 363e 197c 013e
00000170: d506 8ebb e5db f4bc c4ec fdbc 9c4b 79bb
00000180: 9f82 37be e680 74bb 2e85 903c e404 e33c
00000190: 3da0 7cbb 5e6c a6bd 7c7b 4dbe 00fc 9c3d
000001a0: 8c28 b4bd bef4 1ebd 36b5 18bc 47a1 ba3d
000001b0: 892e adbd dafc 65bd df74 b9bd 8cb5 9fbb
000001c0: 17d5 473d 41d2 97bd 436d 44bd 2b85 51bd
000001d0: 12a4 1a3d bf54 46bd 963b 9bbd eebe 4a3d
000001e0: 6dcf e1bc 254c 9a3c 4c23 5d3d ff33 0b3e
000001f0: acc9 98bd a6ca 8d3c 5671 61bc 1c86 973a
00000200: f668 463d d685 5d3d 3eb4 013d f7a6 953d
00000210: da30 e73d 7974 183e 8c44 0a3d ae84 09be
00000220: 69d6 efbc d6d9 e9bd 9be5 f3bd aaa2 edbc
00000230: 5d1a 123d be49 113e 605a fc3d f021 583e
00000240: c720 123c ef46 4cbd f4e5 b3bd ea64 263e
00000250: 2f8b 2ebc 7ae9 9dbc ed90 3b3e 215d c43d
00000260: 3cc8 0f3e 6705 103e d725 29bd 508a b73a
00000270: 5896 67bd 0875 553b 5acf b9bd bad4 8f3c
00000280: 2490 833c c387 7dbe 1dcc 103d 4f6f 2fbb
00000290: 40a3 5ebd adcb a7bd 56f8 05be 5080 40be
000002a0: 873c f4bd b0b7 c23b cbe6 4cbe 68a1 bebc
000002b0: 0003 a63d 4f89 4c3d c71d 74bc d90c 9d3a
000002c0: 951a 703d 22e8 89bd b06d 753d d134 af3c
000002d0: 0619 b73c 7fd2 13be b7fd ecbc 6b0b aa3b
000002e0: ee1d 09bd 6539 803d c73f 43bd abdd b8bc
000002f0: e865 293e 0f37 5a3d eefb 4a3c cbc0 d03d
00000300: 9909 753d 8546 7a3d 53f3 ecbc 111e e53d
00000310: f49a cabc 98b8 823d edc4 aabc dfba bf3d
00000320: d976 c03d 3448 9c3d 61c4 6bbc 37b9 193e
00000330: 6c7b bfbc 39b6 143d bcd0 333e 1ee7 e7bd
00000340: c705 88bd 2ab0 77bd 1866 013e c731 2b3e
00000350: 586c a73c f5b1 03be 0e3f 9f3d fd8f 0b3e
00000360: 6c1b a03d 9586 eebd 3ff1 25bd 9ae9 a7bd
00000370: cdd6 cebd 1f9f cfbd e0ff 353c 4a74 6d3c
00000380: 9a14 54be 7387 423c c6fb acbb 5219 7ebc
00000390: 05b1 c43d f0c3 6dba 4382 73bd 86e0 9abd
000003a0: 4774 dbba f692 68bd 2a83 b3bd b5c2 5bbd
000003b0: 1c07 2abe e4ba c1bc f957 3f3c 094e ed3d
000003c0: c1ae e33c 6e72 c8bc 25f3 393e b82f 063d
000003d0: d49f 11bd 257f 343c 5f25 0a3e bd4c 613e
000003e0: 5e6a 053e d8de b23c 03a2 6a3c 6264 57bc
000003f0: bf19 423d 2615 b53c 3db9 ec3d 0752 9c3d

simple_block.6.bias f4 [16]
-0.0036584865 -0.00093164184 -0.007917847 -0.0055799 -0.0026176912 0.0025025737 0.0010237681 -0.00313393
0.0012589188 -0.001311224 0.002237153 -0.0029376436 -0.0026490293 0.0023451361 0.0031293884 0.0024829905
00000000: 38c3 6fbb 6d39 74ba dbb9 01bc 98d7 b6bb
00000010: 928d 2bbb 3802 243b f52f 863a 9f62 4dbb
00000020: 4e02 a53a 60dd abba 339d 123b 7b85 40bb
00000030: 569b 2dbb dbb0 193b 6d16 4d3b abb9 223b
